result/07/b29root.npy (npy, 3328 bytes, 1 tensors)

array f8 [80, 5]
-20.0 -1.6335642337799072 0.03375102952122688 -0.052409302443265915 -8.486908912658691 -19.5 -1.6163678169250488 0.030749095603823662
-0.051708001643419266 -8.254011154174805 -19.0 -1.5980278253555298 0.027985377237200737 -0.050677213817834854 -8.017648696899414 -18.5
-1.5807591676712036 0.02534329518675804 -0.04916515201330185 -7.78648042678833 -18.0 -1.5484992265701294 0.023225130513310432 -0.04971377179026604
-7.504078388214111 -17.5 -1.5264662504196167 0.021533960476517677 -0.047251906245946884 -7.255874156951904 -17.0 -1.4987589120864868
0.02007940039038658 -0.045244861394166946 -6.99024772644043 -16.5 -1.4681456089019775 0.018815020099282265 -0.043308768421411514 -6.717574596405029
-16.0 -1.4365556240081787 0.017635883763432503 -0.04125982150435448 -6.445549964904785 -15.5 -1.4055179357528687 0.016488678753376007
-0.03891737386584282 -6.1794586181640625 -15.0 -1.372509479522705 0.015476636588573456 -0.03658584505319595 -5.910335063934326 -14.5
-1.336413025856018 0.014651824720203876 -0.034427594393491745 -5.635298252105713 -14.0 -1.2975871562957764 0.013967449776828289 -0.032467830926179886
-5.356464862823486 -13.5 -1.2568237781524658 0.013372283428907394 -0.03064626455307007 -5.076920986175537 -13.0 -1.2158243656158447
0.0127966133877635 -0.028746770694851875 -4.80258846282959 -12.5 -1.1754262447357178 0.012210080400109291 -0.026647886261343956 -4.53594446182251
-12.0 -1.1332039833068848 0.011692204512655735 -0.024730117991566658 -4.289742469787598 -11.5 -1.0882649421691895 0.011268461123108864
-0.023154553025960922 -4.073453426361084 -11.0 -1.041683316230774 0.010914955288171768 -0.021781979128718376 -3.8606009483337402 -10.5
-0.9949842691421509 0.010540245100855827 -0.020373426377773285 -3.65248703956604 -10.0 -0.9482989311218262 0.010144677944481373 -0.018920347094535828
-3.4485578536987305 -9.5 -0.900097131729126 0.009815617464482784 -0.017682956531643867 -3.248166084289551 -9.0 -0.8506163954734802
0.009546223096549511 -0.016602512449026108 -3.057039499282837 -8.5 -0.8050476312637329 0.009270603768527508 -0.014714066870510578 -2.8782269954681396
-8.0 -0.7554466128349304 0.009032667614519596 -0.013594072312116623 -2.6951723098754883 -7.5 -0.7040891647338867 0.008769386447966099
-0.012824627570807934 -2.513497829437256 -7.0 -0.6519948840141296 0.00855029746890068 -0.01217999029904604 -2.334439992904663 -6.5
-0.5996643304824829 0.008287342265248299 -0.011571534909307957 -2.169196844100952 -6.0 -0.5471528768539429 0.008065430447459221 -0.01098904013633728
-2.0081417560577393 -5.5 -0.4937348961830139 0.007845125161111355 -0.010560637339949608 -1.849485993385315 -5.0 -0.44009149074554443
0.007655531167984009 -0.010168924927711487 -1.694374680519104 -4.5 -0.3861111104488373 0.007462239824235439 -0.009833410382270813 -1.5427606105804443
-4.0 -0.33310550451278687 0.007237502373754978 -0.009321751073002815 -1.4057141542434692 -3.5 -0.28000837564468384 0.007005675230175257
-0.008821186609566212 -1.2720962762832642 -3.0 -0.22922028601169586 0.00668550468981266 -0.007896320894360542 -1.1449791193008423 -2.5
-0.1798430234193802 0.006310937460511923 -0.006703701335936785 -1.0249394178390503 -2.0 -0.12757115066051483 0.006090888753533363 -0.0060349805280566216
-0.9102451801300049 -1.5 -0.07265982031822205 0.005977041088044643 -0.005854879971593618 -0.8058806657791138 -1.0 -0.018659761175513268
0.0058622644282877445 -0.005508251953870058 -0.846236526966095 -0.5 0.03549269214272499 0.005737472791224718 -0.005191713571548462 -0.8879035711288452
0.0 0.09050832688808441 0.0056907981634140015 -0.005046674981713295 -0.9308932423591614 0.5 0.14538651704788208 0.005606736522167921
-0.004879493732005358 -0.9740772843360901 1.0 0.19884724915027618 0.005538158118724823 -0.004451719578355551 -1.0173442363739014 1.5
0.2528253495693207 0.005419042427092791 -0.004119543824344873 -1.062229871749878 2.0 0.3080790340900421 0.005438204389065504 -0.004061124753206968
-1.1087284088134766 2.5 0.3634951114654541 0.005403248127549887 -0.004036409314721823 -1.1580122709274292 3.0 0.4189622700214386
0.00540128443390131 -0.004040686413645744 -1.2097539901733398 3.5 0.4729550778865814 0.005413164850324392 -0.003777876263484359 -1.2614455223083496
4.0 0.5282102823257446 0.005392346065491438 -0.0037641229573637247 -1.316417932510376 4.5 0.5814787745475769 0.005454108119010925
-0.0034054811112582684 -1.3703891038894653 5.0 0.6363946795463562 0.005482836626470089 -0.003373273415490985 -1.4262404441833496 5.5
00000000: 0000 0000 0000 34c0 0000 0040 1423 fabf
00000010: 0000 00a0 d047 a13f 0000 0060 64d5 aabf
00000020: 0000 0020 4cf9 20c0 0000 0000 0080 33c0
00000030: 0000 0080 a4dc f9bf 0000 00e0 b07c 9f3f
00000040: 0000 00a0 7879 aabf 0000 00c0 0d82 20c0
00000050: 0000 0000 0000 33c0 0000 00a0 8591 f9bf
00000060: 0000 00e0 32a8 9c3f 0000 0020 5df2 a9bf
00000070: 0000 0040 0909 20c0 0000 0000 0080 32c0
00000080: 0000 0020 ca4a f9bf 0000 00c0 97f3 993f
00000090: 0000 00c0 2c2c a9bf 0000 0020 5b25 1fc0
000000a0: 0000 0000 0000 32c0 0000 0020 a7c6 f8bf
000000b0: 0000 0020 54c8 973f 0000 0060 1574 a9bf
000000c0: 0000 0020 2d04 1ec0 0000 0000 0080 31c0
000000d0: 0000 00e0 676c f8bf 0000 00a0 ff0c 963f
000000e0: 0000 00e0 6631 a8bf 0000 00e0 0306 1dc0
000000f0: 0000 0000 0000 31c0 0000 00a0 eafa f7bf
00000100: 0000 00c0 b18f 943f 0000 00a0 552a a7bf
00000110: 0000 0080 03f6 1bc0 0000 0000 0080 30c0
00000120: 0000 0040 867d f7bf 0000 00a0 3e44 933f
00000130: 0000 0020 912c a6bf 0000 00e0 cbde 1ac0
00000140: 0000 0000 0000 30c0 0000 00c0 21fc f6bf
00000150: 0000 0020 240f 923f 0000 00e0 0120 a5bf
00000160: 0000 0040 3ec8 19c0 0000 0000 0000 2fc0
00000170: 0000 0060 007d f6bf 0000 0080 68e2 903f
00000180: 0000 0060 faec a3bf 0000 0000 c4b7 18c0
00000190: 0000 0000 0000 2ec0 0000 0080 ccf5 f5bf
000001a0: 0000 0000 37b2 8f3f 0000 0040 61bb a2bf
000001b0: 0000 00e0 2ea4 17c0 0000 0000 0000 2dc0
000001c0: 0000 00a0 f261 f5bf 0000 00a0 c601 8e3f
000001d0: 0000 0060 7ea0 a1bf 0000 00a0 8b8a 16c0
000001e0: 0000 0000 0000 2cc0 0000 00c0 eac2 f4bf
000001f0: 0000 0060 f79a 8c3f 0000 00a0 9f9f a0bf
00000200: 0000 0020 056d 15c0 0000 0000 0000 2bc0
00000210: 0000 0040 f31b f4bf 0000 0080 ed62 8b3f
00000220: 0000 0000 bc61 9fbf 0000 0060 c44e 14c0
00000230: 0000 0000 0000 2ac0 0000 0040 0474 f3bf
00000240: 0000 0060 1c35 8a3f 0000 0020 cb6f 9dbf
00000250: 0000 00c0 d935 13c0 0000 0000 0000 29c0
00000260: 0000 00c0 8bce f2bf 0000 0040 9901 893f
00000270: 0000 0060 9549 9bbf 0000 00a0 ce24 12c0
00000280: 0000 0000 0000 28c0 0000 0080 9a21 f2bf
00000290: 0000 0020 15f2 873f 0000 0020 da52 99bf
000002a0: 0000 0040 b228 11c0 0000 0000 0000 27c0
000002b0: 0000 0080 8869 f1bf 0000 0040 eb13 873f
000002c0: 0000 00c0 d3b5 97bf 0000 0060 374b 10c0
000002d0: 0000 0000 0000 26c0 0000 0020 bcaa f0bf
000002e0: 0000 0080 945a 863f 0000 00e0 034e 96bf
000002f0: 0000 00c0 82e2 0ec0 0000 0000 0000 25c0
00000300: 0000 0040 e9d6 efbf 0000 00c0 1f96 853f
00000310: 0000 0080 c5dc 94bf 0000 0020 4b38 0dc0
00000320: 0000 0000 0000 24c0 0000 0000 7758 eebf
00000330: 0000 00a0 bbc6 843f 0000 0000 db5f 93bf
00000340: 0000 0080 a596 0bc0 0000 0000 0000 23c0
00000350: 0000 0080 98cd ecbf 0000 00e0 351a 843f
00000360: 0000 0020 7b1b 92bf 0000 0080 3efc 09c0
00000370: 0000 0000 0000 22c0 0000 00e0 3f38 ebbf
00000380: 0000 0060 f88c 833f 0000 00c0 3f00 91bf
00000390: 0000 0020 d174 08c0 0000 0000 0000 21c0
000003a0: 0000 0040 f3c2 e9bf 0000 0060 77fc 823f
000003b0: 0000 00a0 6822 8ebf 0000 00e0 9b06 07c0
000003c0: 0000 0000 0000 20c0 0000 0060 9e2c e8bf
000003d0: 0000 0020 b87f 823f 0000 0080 35d7 8bbf
000003e0: 0000 0080 b68f 05c0 0000 0000 0000 1ec0
000003f0: 0000 0000 e687 e6bf 0000 0020 aff5 813f
00000400: 0000 0060 cc43 8abf 0000 00c0 a41b 04c0
00000410: 0000 0000 0000 1cc0 0000 0060 24dd e4bf
00000420: 0000 0080 d182 813f 0000 00a0 d2f1 88bf
00000430: 0000 00e0 eeac 02c0 0000 0000 0000 1ac0
00000440: 0000 0040 7330 e3bf 0000 0040 f4f8 803f
00000450: 0000 0020 d1b2 87bf 0000 00e0 835a 01c0
00000460: 0000 0000 0000 18c0 0000 00c0 4682 e1bf
00000470: 0000 00c0 9b84 803f 0000 0000 6c81 86bf
00000480: 0000 00a0 ac10 00c0 0000 0000 0000 16c0
00000490: 0000 0040 5a99 dfbf 0000 00e0 1a11 803f
000004a0: 0000 00c0 d0a0 85bf 0000 00a0 7e97 fdbf
000004b0: 0000 0000 0000 14c0 0000 0080 752a dcbf
000004c0: 0000 0000 685b 7f3f 0000 0000 72d3 84bf
000004d0: 0000 00a0 281c fbbf 0000 0000 0000 12c0
000004e0: 0000 0060 0bb6 d8bf 0000 00c0 b990 7e3f
000004f0: 0000 0000 8a23 84bf 0000 00c0 25af f8bf
00000500: 0000 0000 0000 10c0 0000 00c0 9951 d5bf
00000510: 0000 0040 12a5 7d3f 0000 0040 4817 83bf
00000520: 0000 0020 ce7d f6bf 0000 0000 0000 0cc0
00000530: 0000 0040 a8eb d1bf 0000 00a0 fbb1 7c3f
00000540: 0000 00a0 d710 82bf 0000 00a0 815a f4bf
00000550: 0000 0000 0000 08c0 0000 0020 1757 cdbf
00000560: 0000 0080 4262 7b3f 0000 0040 f22b 80bf
00000570: 0000 00a0 d551 f2bf 0000 0000 0000 04c0
00000580: 0000 00a0 1805 c7bf 0000 0060 7fd9 793f
00000590: 0000 0020 5775 7bbf 0000 00e0 2666 f0bf
000005a0: 0000 0000 0000 00c0 0000 0060 4054 c0bf
000005b0: 0000 0080 c2f2 783f 0000 00c0 22b8 78bf
000005c0: 0000 0080 ba20 edbf 0000 0000 0000 f8bf
000005d0: 0000 0080 d599 b2bf 0000 00c0 617b 783f
000005e0: 0000 0060 49fb 77bf 0000 0040 c6c9 e9bf
000005f0: 0000 0000 0000 f0bf 0000 0060 8b1b 93bf
00000600: 0000 00a0 0703 783f 0000 0020 d28f 76bf
00000610: 0000 00a0 5e14 ebbf 0000 0000 0000 e0bf
00000620: 0000 0020 192c a23f 0000 0020 2d80 773f
00000630: 0000 0000 e843 75bf 0000 00c0 b469 ecbf
00000640: 0000 0000 0000 0000 0000 00c0 8d2b b73f
00000650: 0000 0000 3c4f 773f 0000 0080 d2ab 74bf
00000660: 0000 00a0 e0c9 edbf 0000 0000 0000 e03f
00000670: 0000 0080 069c c23f 0000 00e0 16f7 763f
00000680: 0000 0020 85fc 73bf 0000 0020 a42b efbf
00000690: 0000 0000 0000 f03f 0000 00a0 d373 c93f
000006a0: 0000 0000 2eaf 763f 0000 0060 f73b 72bf
000006b0: 0000 00c0 0a47 f0bf 0000 0000 0000 f83f
000006c0: 0000 0060 4a2e d03f 0000 0020 4732 763f
000006d0: 0000 00a0 a7df 70bf 0000 00c0 e4fe f0bf
000006e0: 0000 0000 0000 0040 0000 0020 91b7 d33f
000006f0: 0000 00e0 5e46 763f 0000 00e0 65a2 70bf
00000700: 0000 0000 5abd f1bf 0000 0000 0000 0440
00000710: 0000 0000 8143 d73f 0000 0060 b721 763f
00000720: 0000 0060 7b88 70bf 0000 00e0 3787 f2bf
00000730: 0000 0000 0000 0840 0000 0020 47d0 da3f
00000740: 0000 0040 a81f 763f 0000 0080 f78c 70bf
00000750: 0000 0000 275b f3bf 0000 0000 0000 0c40
00000760: 0000 0060 e544 de3f 0000 0060 1d2c 763f
00000770: 0000 00e0 c7f2 6ebf 0000 0080 e12e f4bf
00000780: 0000 0000 0000 1040 0000 0040 19e7 e03f
00000790: 0000 00e0 4816 763f 0000 0020 f0d5 6ebf
000007a0: 0000 0040 0c10 f5bf 0000 0000 0000 1240
000007b0: 0000 0060 799b e23f 0000 0000 0c57 763f
000007c0: 0000 00c0 cfe5 6bbf 0000 0020 1ded f5bf
000007d0: 0000 0000 0000 1440 0000 0060 585d e43f
000007e0: 0000 00c0 2b75 763f 0000 0060 44a2 6bbf
000007f0: 0000 0080 e1d1 f6bf 0000 0000 0000 1640
