result/07/b540ols.npy (npy, 3328 bytes, 1 tensors)

array f8 [80, 5]
-20.0 -1.8708443641662598 0.04181959852576256 -0.02282249741256237 -18.38918685913086 -19.5 -1.8907736539840698 0.032431695610284805
-0.0288308747112751 -18.2857608795166 -19.0 -1.8961275815963745 0.027422158047556877 -0.028995433822274208 -17.97132682800293 -18.5
-1.89241361618042 0.024663973599672318 -0.025394771248102188 -17.537673950195312 -18.0 -1.8699171543121338 0.0228254497051239 -0.02241572178900242
-16.929555892944336 -17.5 -1.8369956016540527 0.021292002871632576 -0.02045922912657261 -16.23819923400879 -17.0 -1.7993112802505493
0.019977368414402008 -0.018838563933968544 -15.51683521270752 -16.5 -1.7583250999450684 0.018825160339474678 -0.017455929890275 -14.780847549438477
-16.0 -1.7149076461791992 0.01779874786734581 -0.016250692307949066 -14.039612770080566 -15.5 -1.6696304082870483 0.016871551051735878
-0.015182055532932281 -13.299400329589844 -15.0 -1.6228002309799194 0.01603621430695057 -0.014229618944227695 -12.599272727966309 -14.5
-1.5746439695358276 0.015288218855857849 -0.013378668576478958 -11.910916328430176 -14.0 -1.5257513523101807 0.014556469395756721 -0.012571579776704311
-11.237178802490234 -13.5 -1.4775052070617676 0.013621914200484753 -0.011664584279060364 -10.602568626403809 -13.0 -1.427920937538147
0.012808974832296371 -0.010853909887373447 -9.971454620361328 -12.5 -1.3773709535598755 0.012080136686563492 -0.010113425552845001 -9.34791088104248
-12.0 -1.3261346817016602 0.011405124329030514 -0.009423733688890934 -8.764984130859375 -11.5 -1.2741806507110596 0.010799535550177097
-0.008785373531281948 -8.205074310302734 -11.0 -1.221575140953064 0.010260107927024364 -0.008186452090740204 -7.657253265380859 -10.5
-1.1684173345565796 0.009781413711607456 -0.0076217493042349815 -7.1208577156066895 -10.0 -1.1150425672531128 0.009305467829108238 -0.007049566600471735
-6.60290002822876 -9.5 -1.0618460178375244 0.008767715655267239 -0.006434828042984009 -6.103598117828369 -9.0 -1.0078537464141846
0.008369342423975468 -0.005885073449462652 -5.610389232635498 -8.5 -0.9537287950515747 0.007985251024365425 -0.005310676526278257 -5.135226726531982
-8.0 -0.8997975587844849 0.00757210049778223 -0.004682136699557304 -4.6776628494262695 -7.5 -0.845516562461853 0.007254397496581078
-0.004052172414958477 -4.233679294586182 -7.0 -0.7917858958244324 0.006883387919515371 -0.0032954937778413296 -3.821481943130493 -6.5
-0.738160252571106 0.006567839533090591 -0.002465770347043872 -3.4496407508850098 -6.0 -0.6709879040718079 0.006257230881601572 -0.004659086000174284
-3.04843807220459 -5.5 -0.6100317239761353 0.006088232155889273 -0.005325380712747574 -2.684242010116577 -5.0 -0.5587043166160583
0.006155585404485464 -0.003917814232409 -2.364760398864746 -4.5 -0.5045037269592285 0.006158797070384026 -0.0032411941792815924 -2.0517101287841797
-4.0 -0.4496701955795288 0.006132591515779495 -0.002724333433434367 -1.7723388671875 -3.5 -0.39399397373199463 0.006055681966245174
-0.0023264079354703426 -1.5351310968399048 -3.0 -0.33814728260040283 0.005946650635451078 -0.0019530082354322076 -1.3078522682189941 -2.5
-0.2821105122566223 0.005770847667008638 -0.0016012164996936917 -1.100906491279602 -2.0 -0.22568868100643158 0.005610402673482895 -0.0012820838019251823
-0.9258508682250977 -1.5 -0.1692746877670288 0.005484722089022398 -0.0009615127346478403 -0.7732260227203369 -1.0 -0.11282026022672653
0.005345721263438463 -0.000644506246317178 -0.640640139579773 -0.5 -0.05637877434492111 0.005294129718095064 -0.00032494444167241454 -0.531173050403595
0.0 -1.921283576677979e-09 0.005248595029115677 -4.699711730893341e-10 -0.4428498446941376 0.5 0.056378722190856934 0.005294137634336948
0.0003249454603064805 -0.5311747789382935 1.0 0.11282029747962952 0.005345721263438463 0.0006444943137466908 -0.6406409740447998 1.5
0.1692747175693512 0.005484730005264282 0.0009614909649826586 -0.7732281684875488 2.0 0.2256889045238495 0.005610391031950712 0.0012820317642763257
-0.9258534908294678 2.5 0.2821108102798462 0.005770865827798843 0.0016011397819966078 -1.1009143590927124 3.0 0.3381478190422058
0.0059466236270964146 0.0019528861157596111 -1.3078385591506958 3.5 0.3939947485923767 0.0060556731186807156 0.002326234709471464 -1.5351166725158691
4.0 0.4496711492538452 0.006132596638053656 0.002724103629589081 -1.7723238468170166 4.5 0.5045050978660583 0.006158791948109865
0.003240875666961074 -2.0517354011535645 5.0 0.5587062835693359 0.006155592855066061 0.003917364403605461 -2.3647892475128174 5.5
00000000: 0000 0000 0000 34c0 0000 0080 faee fdbf
00000010: 0000 00e0 6069 a53f 0000 00e0 c75e 97bf
00000020: 0000 00c0 a163 32c0 0000 0000 0080 33c0
00000030: 0000 00e0 9b40 febf 0000 0020 e39a a03f
00000040: 0000 0040 d785 9dbf 0000 00a0 2749 32c0
00000050: 0000 0000 0000 33c0 0000 00e0 8956 febf
00000060: 0000 00e0 8d14 9c3f 0000 00a0 fab0 9dbf
00000070: 0000 00e0 a8f8 31c0 0000 0000 0080 32c0
00000080: 0000 0080 5347 febf 0000 0040 8341 993f
00000090: 0000 0040 1601 9abf 0000 0000 a589 31c0
000000a0: 0000 0000 0000 32c0 0000 0040 2eeb fdbf
000000b0: 0000 0000 8e5f 973f 0000 00a0 25f4 96bf
000000c0: 0000 0060 f7ed 30c0 0000 0000 0080 31c0
000000d0: 0000 0080 5564 fdbf 0000 0020 92cd 953f
000000e0: 0000 00a0 43f3 94bf 0000 00a0 fa3c 30c0
000000f0: 0000 0000 0000 31c0 0000 00a0 fac9 fcbf
00000100: 0000 0080 f274 943f 0000 00a0 6a4a 93bf
00000110: 0000 00a0 9e08 2fc0 0000 0000 0080 30c0
00000120: 0000 0080 1922 fcbf 0000 0020 e746 933f
00000130: 0000 00a0 f7df 91bf 0000 0040 cb8f 2dc0
00000140: 0000 0000 0000 30c0 0000 0000 4370 fbbf
00000150: 0000 00c0 d539 923f 0000 0080 05a4 90bf
00000160: 0000 0020 4814 2cc0 0000 0000 0000 2fc0
00000170: 0000 0060 ceb6 fabf 0000 00a0 c646 913f
00000180: 0000 0000 c517 8fbf 0000 0000 4b99 2ac0
00000190: 0000 0000 0000 2ec0 0000 0060 fdf6 f9bf
000001a0: 0000 0020 cc6b 903f 0000 0020 6b24 8dbf
000001b0: 0000 00e0 d332 29c0 0000 0000 0000 2dc0
000001c0: 0000 00e0 bd31 f9bf 0000 0000 6e4f 8f3f
000001d0: 0000 0080 4666 8bbf 0000 00a0 63d2 27c0
000001e0: 0000 0000 0000 2cc0 0000 0040 7a69 f8bf
000001f0: 0000 0040 c8cf 8d3f 0000 00e0 20bf 89bf
00000200: 0000 0080 6f79 26c0 0000 0000 0000 2bc0
00000210: 0000 0080 dca3 f7bf 0000 0060 cee5 8b3f
00000220: 0000 0000 9ae3 87bf 0000 00e0 8334 25c0
00000230: 0000 0000 0000 2ac0 0000 00a0 c3d8 f6bf
00000240: 0000 0080 973b 8a3f 0000 0020 933a 86bf
00000250: 0000 0080 62f1 23c0 0000 0000 0000 29c0
00000260: 0000 0020 b609 f6bf 0000 0080 78bd 883f
00000270: 0000 0000 59b6 84bf 0000 0060 21b2 22c0
00000280: 0000 0000 0000 28c0 0000 0000 d937 f5bf
00000290: 0000 00e0 915b 873f 0000 0020 c04c 83bf
000002a0: 0000 0000 ac87 21c0 0000 0000 0000 27c0
000002b0: 0000 0040 0b63 f4bf 0000 0020 111e 863f
000002c0: 0000 00e0 10fe 81bf 0000 0080 ff68 20c0
000002d0: 0000 0000 0000 26c0 0000 0060 928b f3bf
000002e0: 0000 0060 4003 853f 0000 0000 0fc4 80bf
000002f0: 0000 0000 07a1 1ec0 0000 0000 0000 25c0
00000300: 0000 0060 d6b1 f2bf 0000 0020 4708 843f
00000310: 0000 00c0 fb37 7fbf 0000 0020 c27b 1cc0
00000320: 0000 0000 0000 24c0 0000 00e0 36d7 f1bf
00000330: 0000 00c0 be0e 833f 0000 00a0 01e0 7cbf
00000340: 0000 00a0 5e69 1ac0 0000 0000 0000 23c0
00000350: 0000 0040 52fd f0bf 0000 00e0 cef4 813f
00000360: 0000 0000 685b 7abf 0000 00a0 156a 18c0
00000370: 0000 0000 0000 22c0 0000 0040 2b20 f0bf
00000380: 0000 0020 f223 813f 0000 0060 f21a 78bf
00000390: 0000 00e0 0971 16c0 0000 0000 0000 21c0
000003a0: 0000 0040 f284 eebf 0000 0040 925a 803f
000003b0: 0000 00e0 a5c0 75bf 0000 00e0 788a 14c0
000003c0: 0000 0000 0000 20c0 0000 0040 24cb ecbf
000003d0: 0000 0040 ec03 7f3f 0000 0080 932d 73bf
000003e0: 0000 0040 edb5 12c0 0000 0000 0000 1ec0
000003f0: 0000 00c0 780e ebbf 0000 0080 c9b6 7d3f
00000400: 0000 00c0 0299 70bf 0000 00a0 49ef 10c0
00000410: 0000 0000 0000 1cc0 0000 0060 4f56 e9bf
00000420: 0000 0060 c131 7c3f 0000 00c0 26ff 6abf
00000430: 0000 0020 6592 0ec0 0000 0000 0000 1ac0
00000440: 0000 0040 029f e7bf 0000 0000 e1e6 7a3f
00000450: 0000 0060 1833 64bf 0000 0040 dd98 0bc0
00000460: 0000 0000 0000 18c0 0000 00a0 bb78 e5bf
00000470: 0000 00a0 2ea1 793f 0000 00e0 6715 73bf
00000480: 0000 0080 3363 08c0 0000 0000 0000 16c0
00000490: 0000 0040 6185 e3bf 0000 0060 f9ef 783f
000004a0: 0000 0000 11d0 75bf 0000 00e0 5379 05c0
000004b0: 0000 0000 0000 14c0 0000 00e0 e7e0 e1bf
000004c0: 0000 0060 9936 793f 0000 0040 200c 70bf
000004d0: 0000 0080 07eb 02c0 0000 0000 0000 12c0
000004e0: 0000 0000 e524 e0bf 0000 0080 f739 793f
000004f0: 0000 00e0 468d 6abf 0000 0000 e769 00c0
00000500: 0000 0000 0000 10c0 0000 0080 65c7 dcbf
00000510: 0000 0000 7d1e 793f 0000 0060 5751 66bf
00000520: 0000 0000 805b fcbf 0000 0000 0000 0cc0
00000530: 0000 0080 3237 d9bf 0000 00c0 d7cd 783f
00000540: 0000 00c0 d40e 63bf 0000 00a0 e58f f8bf
00000550: 0000 0000 0000 08c0 0000 0080 34a4 d5bf
00000560: 0000 00e0 835b 783f 0000 00a0 82ff 5fbf
00000570: 0000 0080 f6ec f4bf 0000 0000 0000 04c0
00000580: 0000 0040 190e d2bf 0000 0020 2ca3 773f
00000590: 0000 0020 fd3b 5abf 0000 0020 509d f1bf
000005a0: 0000 0000 0000 00c0 0000 00e0 5de3 ccbf
000005b0: 0000 0000 effa 763f 0000 0000 7301 55bf
000005c0: 0000 0000 92a0 edbf 0000 0000 0000 f8bf
000005d0: 0000 0000 cbaa c5bf 0000 00e0 2577 763f
000005e0: 0000 00e0 c081 4fbf 0000 0080 44be e8bf
000005f0: 0000 0000 0000 f0bf 0000 00e0 c9e1 bcbf
00000600: 0000 0020 65e5 753f 0000 00a0 821e 45bf
00000610: 0000 00c0 1f80 e4bf 0000 0000 0000 e0bf
00000620: 0000 00c0 addd acbf 0000 0020 4caf 753f
00000630: 0000 00c0 a94b 35bf 0000 00a0 5eff e0bf
00000640: 0000 0000 0000 0000 0000 0080 f280 20be
00000650: 0000 0000 8d7f 753f 0000 0000 e925 00be
00000660: 0000 00e0 a657 dcbf 0000 0000 0000 e03f
00000670: 0000 0000 acdd ac3f 0000 0040 4eaf 753f
00000680: 0000 0020 ae4b 353f 0000 0040 62ff e0bf
00000690: 0000 0000 0000 f03f 0000 0080 cae1 bc3f
000006a0: 0000 0020 65e5 753f 0000 0000 691e 453f
000006b0: 0000 0080 2180 e4bf 0000 0000 0000 f83f
000006c0: 0000 0040 cbaa c53f 0000 0000 2877 763f
000006d0: 0000 0020 9281 4f3f 0000 0000 49be e8bf
000006e0: 0000 0000 0000 0040 0000 00c0 5fe3 cc3f
000006f0: 0000 00e0 ebfa 763f 0000 0020 3b01 553f
00000700: 0000 0080 97a0 edbf 0000 0000 0000 0440
00000710: 0000 0080 1a0e d23f 0000 0000 31a3 773f
00000720: 0000 00c0 aa3b 5a3f 0000 0060 589d f1bf
00000730: 0000 0000 0000 0840 0000 00c0 36a4 d53f
00000740: 0000 00a0 7c5b 783f 0000 0080 fffe 5f3f
00000750: 0000 0020 e8ec f4bf 0000 0000 0000 0c40
00000760: 0000 00c0 3537 d93f 0000 0060 d5cd 783f
00000770: 0000 00c0 770e 633f 0000 0080 d68f f8bf
00000780: 0000 0000 0000 1040 0000 0080 69c7 dc3f
00000790: 0000 0060 7e1e 793f 0000 0000 dc50 663f
000007a0: 0000 0040 705b fcbf 0000 0000 0000 1240
000007b0: 0000 00e0 e724 e03f 0000 0020 f639 793f
000007c0: 0000 00e0 9b8c 6a3f 0000 0040 f469 00c0
000007d0: 0000 0000 0000 1440 0000 0000 ece0 e13f
000007e0: 0000 0060 9b36 793f 0000 0080 a70b 703f
000007f0: 0000 00a0 16eb 02c0 0000 0000 0000 1640
