result/07/b737b.npy (npy, 3328 bytes, 1 tensors)

array f8 [80, 5]
000000 00 00 00 00 00 00 34 c0 00 00 00 60 1b ab fb bf
       -20.0 -1.7292741537094116
000010 00 00 00 40 df f8 a4 3f 00 00 00 20 8b a3 a4 bf
       0.04096124321222305 -0.04031023755669594
000020 00 00 00 60 77 5f 31 c0 00 00 00 00 00 80 33 c0
       -17.372915267944336 -19.5
000030 00 00 00 00 1d c4 fb bf 00 00 00 e0 3f d4 a1 3f
       -1.7353792190551758 0.034822460263967514
000040 00 00 00 00 32 71 a5 bf 00 00 00 e0 46 22 31 c0
       -0.041879236698150635 -17.133893966674805
000050 00 00 00 00 00 00 33 c0 00 00 00 00 25 b8 fb bf
       -19.0 -1.732457160949707
000060 00 00 00 80 d0 b1 9e 3f 00 00 00 20 1c c3 a5 bf
       0.029975183308124542 -0.042504195123910904
000070 00 00 00 80 54 cd 30 c0 00 00 00 00 00 80 32 c0
       -16.80207061767578 -18.5
000080 00 00 00 40 5b 92 fb bf 00 00 00 40 d8 d4 9a 3f
       -1.723231554031372 0.02620256319642067
000090 00 00 00 40 3a 8d a5 bf 00 00 00 40 fc 67 30 c0
       -0.04209310561418533 -16.406192779541016
0000a0 00 00 00 00 00 00 32 c0 00 00 00 00 df 59 fb bf
       -18.0 -1.7094411849975586
0000b0 00 00 00 00 1a e1 97 3f 00 00 00 00 76 c8 a4 bf
       0.023319631814956665 -0.04059189558029175
0000c0 00 00 00 20 07 ee 2f c0 00 00 00 00 00 80 31 c0
       -15.964898109436035 -17.5
0000d0 00 00 00 e0 5b 12 fb bf 00 00 00 80 7a a6 95 3f
       -1.6919821500778198 0.021142877638339996
0000e0 00 00 00 60 37 81 a3 bf 00 00 00 a0 84 fa 2e c0
       -0.03809521719813347 -15.489293098449707
0000f0 00 00 00 00 00 00 31 c0 00 00 00 60 01 bd fa bf
       -17.0 -1.671143889427185
000100 00 00 00 00 b7 f7 93 3f 00 00 00 c0 e9 d1 a1 bf
       0.01949964463710785 -0.034804634749889374
000110 00 00 00 80 61 f8 2d c0 00 00 00 00 00 80 30 c0
       -14.985118865966797 -16.5
000120 00 00 00 c0 2b 59 fa bf 00 00 00 00 c3 ae 92 3f
       -1.6467702388763428 0.01824478805065155
000130 00 00 00 a0 83 b8 9f bf 00 00 00 a0 bc e8 2c c0
       -0.03097730316221714 -14.454564094543457
000140 00 00 00 00 00 00 30 c0 00 00 00 40 3c cf f9 bf
       -16.0 -1.6130945682525635
000150 00 00 00 80 05 98 91 3f 00 00 00 60 90 e9 9c bf
       0.017181478440761566 -0.028234725818037987
000160 00 00 00 00 c1 b9 2b c0 00 00 00 00 00 00 2f c0
       -13.862800598144531 -15.5
000170 00 00 00 e0 57 30 f9 bf 00 00 00 e0 ba 9e 90 3f
       -1.5743025541305542 0.01623050682246685
000180 00 00 00 20 b9 c0 9a bf 00 00 00 40 fc 7c 2a c0
       -0.02612580545246601 -13.244112014770508
000190 00 00 00 00 00 00 2e c0 00 00 00 60 f6 86 f8 bf
       -15.0 -1.5329498052597046
0001a0 00 00 00 e0 c2 7e 8f 3f 00 00 00 a0 c2 d2 98 bf
       0.0153784966096282 -0.024241486564278603
0001b0 00 00 00 a0 ab 3c 29 c0 00 00 00 00 00 00 2d c0
       -12.618496894836426 -14.5
0001c0 00 00 00 e0 0f d6 f7 bf 00 00 00 60 a7 ee 8d 3f
       -1.489761233329773 0.014615352265536785
0001d0 00 00 00 00 f2 08 97 bf 00 00 00 a0 d8 fb 27 c0
       -0.02249506115913391 -11.991887092590332
0001e0 00 00 00 00 00 00 2c c0 00 00 00 00 8a 20 f7 bf
       -14.0 -1.445444107055664
0001f0 00 00 00 60 63 85 8c 3f 00 00 00 40 10 4a 95 bf
       0.013926292769610882 -0.02079034224152565
000200 00 00 00 80 69 bd 26 c0 00 00 00 00 00 00 2b c0
       -11.369945526123047 -13.5
000210 00 00 00 40 34 69 f6 bf 00 00 00 20 9b 3c 8b 3f
       -1.4006845951080322 0.013299190439283848
000220 00 00 00 c0 e5 79 93 bf 00 00 00 60 f7 83 25 c0
       -0.01901968941092491 -10.757746696472168
000230 00 00 00 00 00 00 2a c0 00 00 00 c0 9c b1 f5 bf
       -13.0 -1.3558623790740967
000240 00 00 00 60 06 0f 8a 3f 00 00 00 40 88 8a 91 bf
       0.012723970226943493 -0.017130021005868912
000250 00 00 00 c0 01 51 24 c0 00 00 00 00 00 00 29 c0
       -10.15821647644043 -12.5
000260 00 00 00 e0 cc f8 f4 bf 00 00 00 a0 9b f5 88 3f
       -1.3107422590255737 0.012187209911644459
000270 00 00 00 e0 88 1f 8f bf 00 00 00 40 35 24 23 c0
       -0.015196866355836391 -9.570718765258789
000280 00 00 00 00 00 00 28 c0 00 00 00 a0 e1 41 f4 bf
       -12.0 -1.2660843133926392
000290 00 00 00 20 8b da 87 3f 00 00 00 a0 90 d1 8a bf
       0.011647307313978672 -0.013095025904476643
0002a0 00 00 00 80 b0 01 22 c0 00 00 00 00 00 00 27 c0
       -9.003299713134766 -11.5
0002b0 00 00 00 40 26 91 f3 bf 00 00 00 40 38 8d 86 3f
       -1.2229368686676025 0.01101154275238514
0002c0 00 00 00 40 fa cf 85 bf 00 00 00 00 c6 f0 20 c0
       -0.010650591924786568 -8.470260620117188
0002d0 00 00 00 00 00 00 26 c0 00 00 00 40 73 d0 f2 bf
       -11.0 -1.1758911609649658
0002e0 00 00 00 e0 20 67 85 3f 00 00 00 e0 36 50 82 bf
       0.010450608097016811 -0.008942059241235256
0002f0 00 00 00 00 d1 b2 1f c0 00 00 00 00 00 00 25 c0
       -7.924625396728516 -10.5
000300 00 00 00 e0 fd c9 f1 bf 00 00 00 e0 1d 45 84 3f
       -1.1118143796920776 0.009897454641759396
000310 00 00 00 60 2d 3b 86 bf 00 00 00 40 ab 36 1d c0
       -0.010855059139430523 -7.303387641906738
000320 00 00 00 00 00 00 24 c0 00 00 00 60 e6 c3 f0 bf
       -10.0 -1.047827124595642
000330 00 00 00 40 bd 44 83 3f 00 00 00 20 89 f6 89 bf
       0.009408453479409218 -0.012677260674536228
000340 00 00 00 20 d5 cf 1a c0 00 00 00 00 00 00 23 c0
       -6.702961444854736 -9.5
000350 00 00 00 00 41 8a ef bf 00 00 00 40 e9 64 82 3f
       -0.9856266975402832 0.008981535211205482
000360 00 00 00 60 1a c3 8c bf 00 00 00 80 41 af 18 c0
       -0.014044004492461681 -6.171148300170898
000370 00 00 00 00 00 00 22 c0 00 00 00 20 b0 8d ed bf
       -9.0 -0.9235458970069885
000380 00 00 00 c0 c7 9a 81 3f 00 00 00 80 11 66 8f bf
       0.00859600119292736 -0.015331398695707321
000390 00 00 00 00 70 9f 16 c0 00 00 00 00 00 00 21 c0
       -5.65570068359375 -8.5
0003a0 00 00 00 40 3f 89 eb bf 00 00 00 e0 10 b0 80 3f
       -0.8605037927627563 0.008148319087922573
0003b0 00 00 00 20 2d 39 91 bf 00 00 00 c0 72 a7 14 c0
       -0.016819672659039497 -5.1635236740112305
0003c0 00 00 00 00 00 00 20 c0 00 00 00 c0 7e 75 e9 bf
       -8.0 -0.7955926656723022
0003d0 00 00 00 20 21 b3 7f 3f 00 00 00 60 c0 1e 93 bf
       0.007739190477877855 -0.018671995028853416
0003e0 00 00 00 e0 0d b6 12 c0 00 00 00 00 00 00 1e c0
       -4.6777873039245605 -7.5
0003f0 00 00 00 00 57 df e7 bf 00 00 00 e0 b6 95 7f 3f
       -0.7460131645202637 0.0077111381106078625
000400 00 00 00 20 58 64 91 bf 00 00 00 00 73 10 11 c0
       -0.016984345391392708 -4.266063690185547
000410 00 00 00 00 00 00 1c c0 00 00 00 e0 4d 33 e6 bf
       -7.0 -0.6937627196311951
000420 00 00 00 40 20 3d 7f 3f 00 00 00 a0 cb 5c 90 bf
       0.007626653648912907 -0.015978986397385597
000430 00 00 00 00 ea de 0e c0 00 00 00 00 00 00 1a c0
       -3.858844757080078 -6.5
000440 00 00 00 20 56 78 e4 bf 00 00 00 a0 c7 65 7e 3f
       -0.6396895051002502 0.007421283517032862
000450 00 00 00 c0 73 74 8f bf 00 00 00 20 73 b9 0b c0
       -0.015358833596110344 -3.4655516147613525
000460 00 00 00 00 00 00 18 c0 00 00 00 80 69 b6 e2 bf
       -6.0 -0.5847671031951904
000470 00 00 00 00 1f 9c 7d 3f 00 00 00 a0 09 84 8e bf
       0.007228966802358627 -0.014900279231369495
000480 00 00 00 40 72 a8 08 c0 00 00 00 00 00 00 16 c0
       -3.082249164581299 -5.5
000490 00 00 00 40 df f3 e0 bf 00 00 00 80 1e 2c 7d 3f
       -0.5297695398330688 0.007122153416275978
0004a0 00 00 00 a0 64 91 8d bf 00 00 00 60 79 b6 05 c0
       -0.014437471516430378 -2.7140986919403076
0004b0 00 00 00 00 00 00 14 c0 00 00 00 00 a4 66 de bf
       -5.0 -0.47501468658447266
0004c0 00 00 00 80 4f 9d 7c 3f 00 00 00 00 11 85 8c bf
       0.006985960528254509 -0.01392567902803421
0004d0 00 00 00 40 1d 25 03 c0 00 00 00 00 00 00 12 c0
       -2.3931221961975098 -4.5
0004e0 00 00 00 20 b1 d2 da bf 00 00 00 00 ac 19 7c 3f
       -0.41910961270332336 0.006860420107841492
0004f0 00 00 00 80 b5 e2 8b bf 00 00 00 e0 cc ad 00 c0
       -0.013616006821393967 -2.0848634243011475
000500 00 00 00 00 00 00 10 c0 00 00 00 40 ef 3d d7 bf
       -4.0 -0.36315518617630005
000510 00 00 00 a0 3a 6d 7b 3f 00 00 00 20 43 41 8b bf
       0.006695965770632029 -0.013308071531355381
000520 00 00 00 e0 54 ac fc bf 00 00 00 00 00 00 0c c0
       -1.792073130607605 -3.5
000530 00 00 00 e0 b4 ae d3 bf 00 00 00 c0 75 87 7a 3f
       -0.307538241147995 0.006476840935647488
000540 00 00 00 a0 2c 86 8a bf 00 00 00 c0 6b 3b f8 bf
       -0.012951229698956013 -1.5145070552825928
000550 00 00 00 00 00 00 08 c0 00 00 00 a0 14 2d d0 bf
       -3.0 -0.25275149941444397
000560 00 00 00 80 42 23 79 3f 00 00 00 40 2f 8d 89 bf
       0.0061371419578790665 -0.012476319447159767
000570 00 00 00 40 0a 6b f4 bf 00 00 00 00 00 00 04 c0
       -1.2761328220367432 -2.5
000580 00 00 00 60 bc 73 c9 bf 00 00 00 00 3c 9d 77 3f
       -0.19884447753429413 0.005765184760093689
000590 00 00 00 40 2e 58 88 bf 00 00 00 20 bf da f0 bf
       -0.011886941269040108 -1.0534049272537231
0005a0 00 00 00 00 00 00 00 c0 00 00 00 60 45 6d c2 bf
       -2.0 -0.14395968616008759
0005b0 00 00 00 60 18 c7 76 3f 00 00 00 40 13 6c 87 bf
       0.005560965742915869 -0.01143660582602024
0005c0 00 00 00 80 44 0f eb bf 00 00 00 00 00 00 f8 bf
       -0.8456137180328369 -1.5
0005d0 00 00 00 20 a6 c8 b6 bf 00 00 00 80 5d 71 76 3f
       -0.08899915963411331 0.0054792072623968124
0005e0 00 00 00 60 2a 82 86 bf 00 00 00 20 a0 28 e5 bf
       -0.01099045854061842 -0.6612091660499573
0005f0 00 00 00 00 00 00 f0 bf 00 00 00 e0 e8 8a a1 bf
       -1.0 -0.034262921661138535
000600 00 00 00 60 e3 06 76 3f 00 00 00 40 2e 8c 85 bf
       0.00537766283378005 -0.010521279647946358
000610 00 00 00 20 65 9f e0 bf 00 00 00 00 00 00 e0 bf
       -0.5194573998451233 -0.5
000620 00 00 00 80 75 57 94 3f 00 00 00 e0 ac f2 75 3f
       0.019864879548549652 0.005358386319130659
000630 00 00 00 00 88 66 84 bf 00 00 00 a0 5c 19 e1 bf
       -0.009961187839508057 -0.5343459248542786
000640 00 00 00 00 00 00 00 00 00 00 00 c0 f4 0b b3 3f
       0.0 0.07440118491649628
000650 00 00 00 e0 8b c6 75 3f 00 00 00 c0 a7 61 83 bf
       0.005316301714628935 -0.009463606402277946
000660 00 00 00 e0 38 b2 e3 bf 00 00 00 00 00 00 e0 3f
       -0.6155056357383728 0.5
000670 00 00 00 c0 ec a4 c0 3f 00 00 00 40 20 e2 75 3f
       0.13003310561180115 0.005342603661119938
000680 00 00 00 a0 37 b1 82 bf 00 00 00 00 83 72 e6 bf
       -0.009127077646553516 -0.7014784812927246
000690 00 00 00 00 00 00 f0 3f 00 00 00 00 78 d9 c7 3f
       1.0 0.1863241195678711
0006a0 00 00 00 c0 2d 2b 76 3f 00 00 00 00 86 36 82 bf
       0.005412272177636623 -0.008893057703971863
0006b0 00 00 00 20 d0 6e e9 bf 00 00 00 00 00 00 f8 3f
       -0.794776976108551 1.5
0006c0 00 00 00 40 ea 10 cf 3f 00 00 00 40 f3 82 76 3f
       0.24270370602607727 0.005495977587997913
0006d0 00 00 00 20 f0 c5 81 bf 00 00 00 20 c8 90 ec bf
       -0.008678318001329899 -0.8926735520362854
0006e0 00 00 00 00 00 00 00 40 00 00 00 00 66 23 d3 3f
       2.0 0.29903554916381836
0006f0 00 00 00 40 fd c4 76 3f 00 00 00 c0 86 54 81 bf
       0.0055589573457837105 -0.008462002500891685
000700 00 00 00 e0 c7 e5 ef bf 00 00 00 00 00 00 04 40
       -0.9967994093894958 2.5
000710 00 00 00 20 cf bb d6 3f 00 00 00 a0 38 35 77 3f
       0.3552129566669464 0.005665990058332682
000720 00 00 00 40 3c db 80 bf 00 00 00 80 69 b4 f1 bf
       -0.008230658248066902 -1.1065459251403809
000730 00 00 00 00 00 00 08 40 00 00 00 00 6b 59 da 3f
       3.0 0.41170763969421387
000740 00 00 00 40 e8 b2 77 3f 00 00 00 80 48 80 80 bf
       0.00578585360199213 -0.008057180792093277
000750 00 00 00 c0 4d 95 f3 bf 00 00 00 00 00 00 0c 40
       -1.2239511013031006 3.5
000760 00 00 00 a0 bd f3 dd 3f 00 00 00 80 24 60 78 3f
       0.46800175309181213 0.005951063707470894
000770 00 00 00 80 75 1c 80 bf 00 00 00 80 a4 9c f5 bf
       -0.007866781204938889 -1.3507428169250488
000780 00 00 00 00 00 00 10 40 00 00 00 40 da c5 e0 3f
       4.0 0.5241519212722778
000790 00 00 00 c0 df 04 79 3f 00 00 00 a0 7d 62 7f bf
       0.006108163855969906 -0.007662287447601557
0007a0 00 00 00 00 89 c3 f7 bf 00 00 00 00 00 00 12 40
       -1.4852380752563477 4.5
0007b0 00 00 00 80 50 91 e2 3f 00 00 00 a0 db af 79 3f
       0.5802385807037354 0.0062712267972528934
0007c0 00 00 00 c0 24 8d 7e bf 00 00 00 a0 cd 08 fa bf
       -0.00745882373303175 -1.627149224281311
0007d0 00 00 00 00 00 00 14 40 00 00 00 c0 ba 5a e4 3f
       5.0 0.6360753774642944
0007e0 00 00 00 c0 94 4a 7a 3f 00 00 00 80 5b 97 7d bf
       0.006418782286345959 -0.007224423810839653
0007f0 00 00 00 a0 34 77 fc bf 00 00 00 00 00 00 16 40
       -1.7791029214859009 5.5
